--------Stdout Start--------
Config name: cnn_config
Experiment num: 1

Final image count: 2986
Train ins shape: (2389, 128, 128, 3)
Train outs shape: (2389, 2)
Val ins shape: (597, 128, 128, 3)
Val outs shape: (597, 2)

Model: "model"
_________________________________________________________________
Layer (type)                 Output Shape              Param #   
=================================================================
input_1 (InputLayer)         [(None, 128, 128, 3)]     0         
_________________________________________________________________
batch_normalization (BatchNo (None, 128, 128, 3)       12        
_________________________________________________________________
conv2d (Conv2D)              (None, 64, 64, 10)        280       
_________________________________________________________________
batch_normalization_1 (Batch (None, 64, 64, 10)        40        
_________________________________________________________________
max_pooling2d (MaxPooling2D) (None, 32, 32, 10)        0         
_________________________________________________________________
conv2d_1 (Conv2D)            (None, 16, 16, 20)        1820      
_________________________________________________________________
batch_normalization_2 (Batch (None, 16, 16, 20)        80        
_________________________________________________________________
max_pooling2d_1 (MaxPooling2 (None, 8, 8, 20)          0         
_________________________________________________________________
conv2d_2 (Conv2D)            (None, 4, 4, 30)          5430      
_________________________________________________________________
batch_normalization_3 (Batch (None, 4, 4, 30)          120       
_________________________________________________________________
max_pooling2d_2 (MaxPooling2 (None, 2, 2, 30)          0         
_________________________________________________________________
conv2d_3 (Conv2D)            (None, 2, 2, 40)          10840     
_________________________________________________________________
batch_normalization_4 (Batch (None, 2, 2, 40)          160       
_________________________________________________________________
max_pooling2d_3 (MaxPooling2 (None, 2, 2, 40)          0         
_________________________________________________________________
flatten (Flatten)            (None, 160)               0         
_________________________________________________________________
dense (Dense)                (None, 100)               16100     
_________________________________________________________________
batch_normalization_5 (Batch (None, 100)               400       
_________________________________________________________________
dropout (Dropout)            (None, 100)               0         
_________________________________________________________________
dense_1 (Dense)              (None, 25)                2525      
_________________________________________________________________
batch_normalization_6 (Batch (None, 25)                100       
_________________________________________________________________
dropout_1 (Dropout)          (None, 25)                0         
_________________________________________________________________
dense_2 (Dense)              (None, 2)                 52        
=================================================================
Total params: 37,959
Trainable params: 37,503
Non-trainable params: 456
_________________________________________________________________
Train on 2389 samples, validate on 597 samples
Epoch 1/200
  32/2389 [..............................] - ETA: 3:27 - loss: 0.3516 - acc: 0.5000
…
