--------Stdout Start--------
Config name: fan_config
Experiment num: 0

Model: "model"
_________________________________________________________________
Layer (type)                 Output Shape              Param #   
=================================================================
input_1 (InputLayer)         [(None, 15000, 1)]        0         
_________________________________________________________________
batch_normalization (BatchNo (None, 15000, 1)          4         
_________________________________________________________________
conv1d (Conv1D)              (None, 15000, 5)          130       
_________________________________________________________________
max_pooling1d (MaxPooling1D) (None, 15000, 5)          0         
_________________________________________________________________
max_pooling1d_1 (MaxPooling1 (None, 30, 5)             0         
_________________________________________________________________
average_pooling1d (AveragePo (None, 1, 5)              0         
_________________________________________________________________
lambda (Lambda)              (None, 1, 5)              0         
=================================================================
Total params: 134
Trainable params: 132
Non-trainable params: 2
_________________________________________________________________
Train on 15 samples
Epoch 1/200
15/15 - 0s - loss: 0.1689
Epoch 2/200
15/15 - 0s - loss: 0.1687
Epoch 3/200
15/15 - 0s - loss: 0.1687
Epoch 4/200
15/15 - 0s - loss: 0.1684
Epoch 5/200
15/15 - 0s - loss: 0.1683
…
