…
Train outs shape: (216789, 3)
Train outs shape: (216789, 3)
Model: "model"
__________________________________________________________________________________________________
Layer (type)                    Output Shape         Param #     Connected to                     
==================================================================================================
input_1 (InputLayer)            [(None, 6, 3)]       0                                            
__________________________________________________________________________________________________
batch_normalization (BatchNorma (None, 6, 3)         12          input_1[0][0]                    
__________________________________________________________________________________________________
flatten (Flatten)               (None, 18)           0           batch_normalization[0][0]        
__________________________________________________________________________________________________
dense (Dense)                   (None, 20)           380         flatten[0][0]                    
__________________________________________________________________________________________________
batch_normalization_1 (BatchNor (None, 20)           80          dense[0][0]                      
__________________________________________________________________________________________________
dense_1 (Dense)                 (None, 10)           210         batch_normalization_1[0][0]      
__________________________________________________________________________________________________
batch_normalization_2 (BatchNor (None, 10)           40          dense_1[0][0]                    
__________________________________________________________________________________________________
dense_2 (Dense)                 (None, 10)           110         batch_normalization_2[0][0]      
__________________________________________________________________________________________________
batch_normalization_3 (BatchNor (None, 10)           40          dense_2[0][0]                    
__________________________________________________________________________________________________
dense_3 (Dense)                 (None, 10)           110         batch_normalization_3[0][0]      
__________________________________________________________________________________________________
batch_normalization_4 (BatchNor (None, 10)           40          dense_3[0][0]                    
__________________________________________________________________________________________________
dense_4 (Dense)                 (None, 3)            33          batch_normalization_4[0][0]      
__________________________________________________________________________________________________
dense_5 (Dense)                 (None, 3)            33          batch_normalization_4[0][0]      
==================================================================================================
Total params: 1,088
Trainable params: 982
Non-trainable params: 106
__________________________________________________________________________________________________
Train on 216789 samples, validate on 54198 samples
Epoch 1/200
216789/216789 - 14s - loss: 895399420.6959 - dense_4_loss: 333440896.0000 - dense_5_loss: 561969344.0000 - val_loss: 896851913.2154 - val_dense_4_loss: 333998528.0000 - val_dense_5_loss: 562748608.0000
…
