--------Stdout Start--------
Config name: shallow_cnn_config
Experiment num: 0

Final image count: 2986
Train ins shape: (2389, 128, 128, 3)
Train outs shape: (2389, 2)
Model: "model"
_________________________________________________________________
Layer (type)                 Output Shape              Param #   
=================================================================
input_1 (InputLayer)         [(None, 128, 128, 3)]     0         
_________________________________________________________________
batch_normalization (BatchNo (None, 128, 128, 3)       12        
_________________________________________________________________
conv2d (Conv2D)              (None, 128, 128, 5)       65        
_________________________________________________________________
batch_normalization_1 (Batch (None, 128, 128, 5)       20        
_________________________________________________________________
max_pooling2d (MaxPooling2D) (None, 32, 32, 5)         0         
_________________________________________________________________
conv2d_1 (Conv2D)            (None, 32, 32, 10)        210       
_________________________________________________________________
batch_normalization_2 (Batch (None, 32, 32, 10)        40        
_________________________________________________________________
max_pooling2d_1 (MaxPooling2 (None, 8, 8, 10)          0         
_________________________________________________________________
conv2d_2 (Conv2D)            (None, 8, 8, 15)          615       
_________________________________________________________________
batch_normalization_3 (Batch (None, 8, 8, 15)          60        
_________________________________________________________________
max_pooling2d_2 (MaxPooling2 (None, 2, 2, 15)          0         
_________________________________________________________________
flatten (Flatten)            (None, 60)                0         
_________________________________________________________________
dense (Dense)                (None, 5)                 305       
_________________________________________________________________
batch_normalization_4 (Batch (None, 5)                 20        
_________________________________________________________________
dropout (Dropout)            (None, 5)                 0         
_________________________________________________________________
dense_1 (Dense)              (None, 5)                 30        
_________________________________________________________________
batch_normalization_5 (Batch (None, 5)                 20        
_________________________________________________________________
dropout_1 (Dropout)          (None, 5)                 0         
_________________________________________________________________
dense_2 (Dense)              (None, 2)                 12        
=================================================================
Total params: 1,409
Trainable params: 1,323
Non-trainable params: 86
_________________________________________________________________
Train on 2389 samples, validate on 597 samples
Epoch 1/200
2389/2389 - 13s - loss: 0.2711 - acc: 0.5609 - val_loss: 0.2968 - val_acc: 0.4908
Epoch 2/200
