…
Train outs shape: (216789, 3)
Train outs shape: (216789, 3)
Model: "model"
__________________________________________________________________________________________________
Layer (type)                    Output Shape         Param #     Connected to                     
==================================================================================================
input_1 (InputLayer)            [(None, 6, 3)]       0                                            
__________________________________________________________________________________________________
flatten (Flatten)               (None, 18)           0           input_1[0][0]                    
__________________________________________________________________________________________________
dense (Dense)                   (None, 30)           570         flatten[0][0]                    
__________________________________________________________________________________________________
batch_normalization (BatchNorma (None, 30)           120         dense[0][0]                      
__________________________________________________________________________________________________
dropout (Dropout)               (None, 30)           0           batch_normalization[0][0]        
__________________________________________________________________________________________________
dense_1 (Dense)                 (None, 10)           310         dropout[0][0]                    
__________________________________________________________________________________________________
batch_normalization_1 (BatchNor (None, 10)           40          dense_1[0][0]                    
__________________________________________________________________________________________________
dropout_1 (Dropout)             (None, 10)           0           batch_normalization_1[0][0]      
__________________________________________________________________________________________________
dense_2 (Dense)                 (None, 20)           220         dropout_1[0][0]                  
__________________________________________________________________________________________________
batch_normalization_2 (BatchNor (None, 20)           80          dense_2[0][0]                    
__________________________________________________________________________________________________
dropout_2 (Dropout)             (None, 20)           0           batch_normalization_2[0][0]      
__________________________________________________________________________________________________
dense_3 (Dense)                 (None, 3)            63          dropout_2[0][0]                  
__________________________________________________________________________________________________
dense_4 (Dense)                 (None, 3)            63          dropout_2[0][0]                  
==================================================================================================
Total params: 1,466
Trainable params: 1,346
Non-trainable params: 120
__________________________________________________________________________________________________
Train on 216789 samples, validate on 54198 samples
Epoch 1/200
216789/216789 - 15s - loss: 850887603.7045 - dense_3_loss: 313992096.0000 - dense_4_loss: 536892352.0000 - val_loss: 774222979.3950 - val_dense_3_loss: 280620832.0000 - val_dense_4_loss: 493513088.0000
…
