…
Train outs shape: (216789, 3)
Train outs shape: (216789, 3)
Model: "model"
__________________________________________________________________________________________________
Layer (type)                    Output Shape         Param #     Connected to                     
==================================================================================================
input_1 (InputLayer)            [(None, 6, 3)]       0                                            
__________________________________________________________________________________________________
batch_normalization (BatchNorma (None, 6, 3)         12          input_1[0][0]                    
__________________________________________________________________________________________________
flatten (Flatten)               (None, 18)           0           batch_normalization[0][0]        
__________________________________________________________________________________________________
dense (Dense)                   (None, 5)            95          flatten[0][0]                    
__________________________________________________________________________________________________
batch_normalization_1 (BatchNor (None, 5)            20          dense[0][0]                      
__________________________________________________________________________________________________
dense_1 (Dense)                 (None, 5)            30          batch_normalization_1[0][0]      
__________________________________________________________________________________________________
batch_normalization_2 (BatchNor (None, 5)            20          dense_1[0][0]                    
__________________________________________________________________________________________________
dense_2 (Dense)                 (None, 5)            30          batch_normalization_2[0][0]      
__________________________________________________________________________________________________
batch_normalization_3 (BatchNor (None, 5)            20          dense_2[0][0]                    
__________________________________________________________________________________________________
dense_3 (Dense)                 (None, 5)            30          batch_normalization_3[0][0]      
__________________________________________________________________________________________________
batch_normalization_4 (BatchNor (None, 5)            20          dense_3[0][0]                    
__________________________________________________________________________________________________
dense_4 (Dense)                 (None, 3)            18          batch_normalization_4[0][0]      
__________________________________________________________________________________________________
dense_5 (Dense)                 (None, 3)            18          batch_normalization_4[0][0]      
==================================================================================================
Total params: 313
Trainable params: 267
Non-trainable params: 46
__________________________________________________________________________________________________
Train on 216789 samples, validate on 54198 samples
Epoch 1/200
216789/216789 - 14s - loss: 882553601.0073 - dense_4_loss: 328050624.0000 - dense_5_loss: 554510144.0000 - val_loss: 862228545.4619 - val_dense_4_loss: 319218688.0000 - val_dense_5_loss: 542909056.0000
…
