--------Stdout Start--------
Model: "model"
_________________________________________________________________
Layer (type)                 Output Shape              Param #   
=================================================================
input_1 (InputLayer)         [(None, 15000, 1)]        0         
_________________________________________________________________
conv (Conv1D)                (None, 15000, 3)          78        
_________________________________________________________________
max_pooling1d (MaxPooling1D) (None, 15000, 3)          0         
_________________________________________________________________
max_pooling1d_1 (MaxPooling1 (None, 30, 3)             0         
_________________________________________________________________
average_pooling1d (AveragePo (None, 1, 3)              0         
_________________________________________________________________
lambda (Lambda)              (None, 3)                 0         
_________________________________________________________________
lambda_1 (Lambda)            (None, 3)                 0         
=================================================================
Total params: 78
Trainable params: 78
Non-trainable params: 0
_________________________________________________________________
Evaluation worked for filename results/fan_dummy_test/experiment_0/!
