--------Stdout Start--------
Config name: fan_config
Experiment num: 0

Train ins shape: (15, 15000, 1)
Train outs shape: (15,)
Model: "model"
_________________________________________________________________
Layer (type)                 Output Shape              Param #   
=================================================================
input_1 (InputLayer)         [(None, 15000, 1)]        0         
_________________________________________________________________
conv (Conv1D)                (None, 15000, 3)          78        
_________________________________________________________________
max_pooling1d (MaxPooling1D) (None, 15000, 3)          0         
_________________________________________________________________
max_pooling1d_1 (MaxPooling1 (None, 30, 3)             0         
_________________________________________________________________
average_pooling1d (AveragePo (None, 1, 3)              0         
_________________________________________________________________
lambda (Lambda)              (None, 3)                 0         
_________________________________________________________________
lambda_1 (Lambda)            (None, 3)                 0         
=================================================================
Total params: 78
Trainable params: 78
Non-trainable params: 0
_________________________________________________________________
Train on 15 samples
Epoch 1/200
15/15 - 0s - loss: 0.5932
Epoch 2/200
15/15 - 0s - loss: 0.5787
Epoch 3/200
15/15 - 0s - loss: 0.5644
Epoch 4/200
15/15 - 0s - loss: 0.5503
Epoch 5/200
15/15 - 0s - loss: 0.5362
…
