--------Stdout Start--------
Config name: very_shallow_cnn_config
Experiment num: 1

Final image count: 2986
Train ins shape: (2389, 128, 128, 3)
Train outs shape: (2389, 2)
Model: "model"
_________________________________________________________________
Layer (type)                 Output Shape              Param #   
=================================================================
input_1 (InputLayer)         [(None, 128, 128, 3)]     0         
_________________________________________________________________
batch_normalization (BatchNo (None, 128, 128, 3)       12        
_________________________________________________________________
conv2d (Conv2D)              (None, 64, 64, 10)        280       
_________________________________________________________________
batch_normalization_1 (Batch (None, 64, 64, 10)        40        
_________________________________________________________________
max_pooling2d (MaxPooling2D) (None, 32, 32, 10)        0         
_________________________________________________________________
flatten (Flatten)            (None, 10240)             0         
_________________________________________________________________
dense (Dense)                (None, 100)               1024100   
_________________________________________________________________
batch_normalization_2 (Batch (None, 100)               400       
_________________________________________________________________
dense_1 (Dense)              (None, 2)                 202       
=================================================================
Total params: 1,025,034
Trainable params: 1,024,808
Non-trainable params: 226
_________________________________________________________________
Train on 2389 samples, validate on 597 samples
Epoch 1/200
2389/2389 - 7s - loss: 0.1847 - acc: 0.7899 - val_loss: 0.4604 - val_acc: 0.5176
Epoch 2/200
2389/2389 - 7s - loss: 0.0527 - acc: 0.9355 - val_loss: 0.3469 - val_acc: 0.5879
…
